…
 which is able to adjust its learning rate automatically.
To speed up tuning time, I started using subsamples of data and only trained full models once I thought I had a good set of parameters.

Of course this was an iterative process and each change to the model required a new search through the parameter space to find the right combination.

 
####2.5. Final architecture

|Layer (type)                     |Output Shape          |Param #     |Connected to         |
|---------------------------------|----------------------|:----------:|---------------------|
|Lambda - Normalization           |(None, 40, 80, 3)     |0           |lambda_input_1[0][0] |
|Convolution2D - 1x1, stride 1    |(None, 40, 80, 6)     |24          |lambda_1[0][0]       |
|Activation - ReLU                |(None, 40, 80, 6)     |0           |convolution2d_1[0][0]|
|Convolution2D - 5x5, stride 2    |(None, 18, 38, 48)    |7248        |activation_1[0][0]   |
|Activation - ReLU                |(None, 18, 38, 48)    |0           |convolution2d_2[0][0]|
|Dropout - Keep 50%               |(None, 18, 38, 48)    |0           |activation_2[0][0]   |
|Convolution2D - 5x5, stride 2    |(None, 7, 17, 72)     |86472       |dropout_1[0][0]      |
|Activation - ReLU                |(None, 7, 17, 72)     |0           |convolution2d_3[0][0]|
|Dropout - Keep 50%               |(None, 7, 17, 72)     |0           |activation_3[0][0]   |
|Convolution2D - 3x3, stride 2    |(None, 5, 15, 96)     |62304       |dropout_2[0][0]      |
|Activation - ReLU                |(None, 5, 15, 96)     |0           |convolution2d_4[0][0]|
|Dropout - Keep 50%               |(None, 5, 15, 96)     |0           |activation_4[0][0]   |
|Convolution2D - 1x1, stride 1    |(None, 5, 15, 128)    |12416       |dropout_3[0][0]      |
|Activation - ReLU                |(None, 5, 15, 128)    |0           |convolution2d_5[0][0]|
|Dropout - Keep 50%               |(None, 5, 15, 128)    |0           |activation_5[0][0]   |
|Flatten                          |(None, 9600)          |0           |dropout_4[0][0]      |
|Dense                            |(None, 128)           |1228928     |flatten_1[0][0]      |
|Activation - ReLU                |(None, 128)           |0           |dense_1[0][0]        |
|Dropout - Keep 50%               |(None, 128)           |0           |activation_6[0][0]   |
|Dense                            |(None, 64)            |8256        |dropout_5[0][0]      |
|Activation - ReLU                |(None, 64)            |0           |dense_2[0][0]        |
|Dropout - Keep 50%               |(None, 64)            |0           |activation_7[0][0]   |
|Dense                            |(None, 16)            |1040        |dropout_6[0][0]      |
|Activation - ReLU                |(None, 16)            |0           |dense_3[0][0]        |
|Dropout - Keep 50%               |(None, 16)            |0           |activation_8[0][0]   |
|Dense                            |(None, 1)             |17          |dropout_7[0][0]      |

Total number of parameters: 1,406,705

The model took about 90 minutes to train on an AWS EC2 GPU Compute instance. The most cumbersome part was transfering all the training data from my local computer to the server, as I had over 3GB of data and hit Linux's limit on file counts. I therefore had to split the data in three groups, zip them individually, tranfer the zip files and unzip on the server, which took well over an hour.
…
